…
/users/PAS2301/kibria5/.conda/envs/vit_env/lib/python3.9/site-packages/transformers/optimization.py:391: FutureWarning: This implementation of AdamW is deprecated and will be removed in a future version. Use the PyTorch implementation torch.optim.AdamW instead, or set `no_deprecation_warning=True` to disable this warning
  warnings.warn(

encoded dataset:
 DatasetDict({
    train: Dataset({
        features: ['input_values', 'label'],
        num_rows: 11020
    })
    validation: Dataset({
        features: ['input_values', 'label'],
        num_rows: 2700
    })
})
CLAP model with MOS prediction head:
 CustomModel(
  (base_model): ClapAudioModelWithProjection(
    (audio_model): ClapAudioModel(
      (audio_encoder): ClapAudioEncoder(
        (patch_embed): ClapAudioPatchEmbed(
          (proj): Conv2d(1, 96, kernel_size=(4, 4), stride=(4, 4))
          (norm): LayerNorm((96,), eps=1e-05, elementwise_affine=True)
        )
        (layers): ModuleList(
          (0): ClapAudioStage(
            (blocks): ModuleList(
              (0-1): 2 x ClapAudioLayer(
                (layernorm_before): LayerNorm((96,), eps=1e-05, elementwise_affine=True)
                (attention): ClapAudioAttention(
                  (self): ClapAudioSelfAttention(
                    (query): Linear(in_features=96, out_features=96, bias=True)
                    (key): Linear(in_features=96, out_features=96, bias=True)
                    (value): Linear(in_features=96, out_features=96, bias=True)
                    (dropout): Dropout(p=0.0, inplace=False)
                  )
                  (output): ClapAudioSelfOutput(
                    (dense): Linear(in_features=96, out_features=96, bias=True)
                    (dropout): Dropout(p=0.0, inplace=False)
                  )
                )
                (drop_path): Identity()
                (layernorm_after): LayerNorm((96,), eps=1e-05, elementwise_affine=True)
                (intermediate): ClapAudioIntermediate(
                  (dense): Linear(in_features=96, out_features=384, bias=True)
                  (intermediate_act_fn): GELUActivation()
                )
                (output): ClapAudioOutput(
                  (dense): Linear(in_features=384, out_features=96, bias=True)
                  (dropout): Dropout(p=0.1, inplace=False)
                )
              )
            )
            (downsample): ClapAudioPatchMerging(
              (reduction): Linear(in_features=384, out_features=192, bias=False)
              (norm): LayerNorm((384,), eps=1e-05, elementwise_affine=True)
            )
          )
          (1): ClapAudioStage(
            (blocks): ModuleList(
              (0-1): 2 x ClapAudioLayer(
                (layernorm_before): LayerNorm((192,), eps=1e-05, elementwise_affine=True)
                (attention): ClapAudioAttention(
                  (self): ClapAudioSelfAttention(
                    (query): Linear(in_features=192, out_features=192, bias=True)
                    (key): Linear(in_features=192, out_features=192, bias=True)
                    (value): Linear(in_features=192, out_features=192, bias=True)
                    (dropout): Dropout(p=0.0, inplace=False)
                  )
                  (output): ClapAudioSelfOutput(
                    (dense): Linear(in_features=192, out_features=192, bias=True)
                    (dropout): Dropout(p=0.0, inplace=False)
                  )
                )
                (drop_path): Identity()
                (layernorm_after): LayerNorm((192,), eps=1e-05, elementwise_affine=True)
                (intermediate): ClapAudioIntermediate(
                  (dense): Linear(in_features=192, out_features=768, bias=True)
                  (intermediate_act_fn): GELUActivation()
                )
                (output): ClapAudioOutput(
                  (dense): Linear(in_features=768, out_features=192, bias=True)
                  (dropout): Dropout(p=0.1, inplace=False)
                )
              )
            )
            (downsample): ClapAudioPatchMerging(
              (reduction): Linear(in_features=768, out_features=384, bias=False)
              (norm): LayerNorm((768,), eps=1e-05, elementwise_affine=True)
            )
          )
          (2): ClapAudioStage(
            (blocks): ModuleList(
              (0-5): 6 x ClapAudioLayer(
                (layernorm_before): LayerNorm((384,), eps=1e-05, elementwise_affine=True)
                (attention): ClapAudioAttention(
                  (self): ClapAudioSelfAttention(
                    (query): Linear(in_features=384, out_features=384, bias=True)
                    (key): Linear(in_features=384, out_features=384, bias=True)
                    (value): Linear(in_features=384, out_features=384, bias=True)
                    (dropout): Dropout(p=0.0, inplace=False)
                  )
                  (output): ClapAudioSelfOutput(
                    (dense): Linear(in_features=384, out_features=384, bias=True)
                    (dropout): Dropout(p=0.0, inplace=False)
                  )
                )
                (drop_path): Identity()
                (layernorm_after): LayerNorm((384,), eps=1e-05, elementwise_affine=True)
                (intermediate): ClapAudioIntermediate(
                  (dense): Linear(in_features=384, out_features=1536, bias=True)
                  (intermediate_act_fn): GELUActivation()
                )
                (output): ClapAudioOutput(
                  (dense): Linear(in_features=1536, out_features=384, bias=True)
                  (dropout): Dropout(p=0.1, inplace=False)
                )
              )
            )
            (downsample): ClapAudioPatchMerging(
              (reduction): Linear(in_features=1536, out_features=768, bias=False)
              (norm): LayerNorm((1536,), eps=1e-05, elementwise_affine=True)
            )
          )
          (3): ClapAudioStage(
            (blocks): ModuleList(
              (0-1): 2 x ClapAudioLayer(
                (layernorm_before): LayerNorm((768,), eps=1e-05, elementwise_affine=True)
                (attention): ClapAudioAttention(
                  (self): ClapAudioSelfAttention(
                    (query): Linear(in_features=768, out_features=768, bias=True)
                    (key): Linear(in_features=768, out_features=768, bias=True)
                    (value): Linear(in_features=768, out_features=768, bias=True)
                    (dropout): Dropout(p=0.0, inplace=False)
                  )
                  (output): ClapAudioSelfOutput(
                    (dense): Linear(in_features=768, out_features=768, bias=True)
                    (dropout): Dropout(p=0.0, inplace=False)
                  )
                )
                (drop_path): Identity()
                (layernorm_after): LayerNorm((768,), eps=1e-05, elementwise_affine=True)
                (intermediate): ClapAudioIntermediate(
                  (dense): Linear(in_features=768, out_features=3072, bias=True)
                  (intermediate_act_fn): GELUActivation()
                )
                (output): ClapAudioOutput(
                  (dense): Linear(in_features=3072, out_features=768, bias=True)
                  (dropout): Dropout(p=0.1, inplace=False)
                )
              )
            )
          )
        )
        (batch_norm): BatchNorm2d(64, eps=1e-05, momentum=0.1, affine=True, track_running_stats=True)
        (norm): LayerNorm((768,), eps=1e-05, elementwise_affine=True)
        (avgpool): AdaptiveAvgPool1d(output_size=1)
      )
    )
    (audio_projection): ClapProjectionLayer(
      (linear1): Linear(in_features=768, out_features=512, bias=True)
      (activation): ReLU()
      (linear2): Linear(in_features=512, out_features=512, bias=True)
    )
  )
  (mos_head): Linear(in_features=512, out_features=1, bias=True)
)
  0%|          | 0/3460 [00:00<?, ?it/s]  0%|          | 1/3460 [00:19<18:17:29, 19.04s/it]  0%|          | 2/3460 [00:19<7:37:53,  7.94s/it]   0%|          | 3/3460 [00:19<4:11:58,  4.37s/it]  0%|          | 4/3460 [00:19<2:35:13,  2.69s/it]  0%|          | 5/3460 [00:19<1:41:43,  1.77s/it]  0%|          | 6/3460 [00:19<1:09:27,  1.21s/it]  0%
…
