…
/users/PAS2301/kibria5/.conda/envs/vit_env/lib/python3.9/site-packages/transformers/optimization.py:391: FutureWarning: This implementation of AdamW is deprecated and will be removed in a future version. Use the PyTorch implementation torch.optim.AdamW instead, or set `no_deprecation_warning=True` to disable this warning
  warnings.warn(

encoded dataset:
 DatasetDict({
    train: Dataset({
        features: ['input_values', 'label'],
        num_rows: 11020
    })
    validation: Dataset({
        features: ['input_values', 'label'],
        num_rows: 2700
    })
})
wavLM model with MOS prediction head:
 WavLMForSequenceClassification(
  (wavlm): WavLMModel(
    (feature_extractor): WavLMFeatureEncoder(
      (conv_layers): ModuleList(
        (0): WavLMGroupNormConvLayer(
          (conv): Conv1d(1, 512, kernel_size=(10,), stride=(5,), bias=False)
          (activation): GELUActivation()
          (layer_norm): GroupNorm(512, 512, eps=1e-05, affine=True)
        )
        (1-4): 4 x WavLMNoLayerNormConvLayer(
          (conv): Conv1d(512, 512, kernel_size=(3,), stride=(2,), bias=False)
          (activation): GELUActivation()
        )
        (5-6): 2 x WavLMNoLayerNormConvLayer(
          (conv): Conv1d(512, 512, kernel_size=(2,), stride=(2,), bias=False)
          (activation): GELUActivation()
        )
      )
    )
    (feature_projection): WavLMFeatureProjection(
      (layer_norm): LayerNorm((512,), eps=1e-05, elementwise_affine=True)
      (projection): Linear(in_features=512, out_features=768, bias=True)
      (dropout): Dropout(p=0.0, inplace=False)
    )
    (encoder): WavLMEncoder(
      (pos_conv_embed): WavLMPositionalConvEmbedding(
        (conv): Conv1d(768, 768, kernel_size=(128,), stride=(1,), padding=(64,), groups=16)
        (padding): WavLMSamePadLayer()
        (activation): GELUActivation()
      )
      (layer_norm): LayerNorm((768,), eps=1e-05, elementwise_affine=True)
      (dropout): Dropout(p=0.0, inplace=False)
      (layers): ModuleList(
        (0): WavLMEncoderLayer(
          (attention): WavLMAttention(
            (k_proj): Linear(in_features=768, out_features=768, bias=True)
            (v_proj): Linear(in_features=768, out_features=768, bias=True)
            (q_proj): Linear(in_features=768, out_features=768, bias=True)
            (out_proj): Linear(in_features=768, out_features=768, bias=True)
            (gru_rel_pos_linear): Linear(in_features=64, out_features=8, bias=True)
            (rel_attn_embed): Embedding(320, 12)
          )
          (dropout): Dropout(p=0.0, inplace=False)
          (layer_norm): LayerNorm((768,), eps=1e-05, elementwise_affine=True)
          (feed_forward): WavLMFeedForward(
            (intermediate_dropout): Dropout(p=0.0, inplace=False)
            (intermediate_dense): Linear(in_features=768, out_features=3072, bias=True)
            (intermediate_act_fn): GELUActivation()
            (output_dense): Linear(in_features=3072, out_features=768, bias=True)
            (output_dropout): Dropout(p=0.0, inplace=False)
          )
          (final_layer_norm): LayerNorm((768,), eps=1e-05, elementwise_affine=True)
        )
        (1-11): 11 x WavLMEncoderLayer(
          (attention): WavLMAttention(
            (k_proj): Linear(in_features=768, out_features=768, bias=True)
            (v_proj): Linear(in_features=768, out_features=768, bias=True)
            (q_proj): Linear(in_features=768, out_features=768, bias=True)
            (out_proj): Linear(in_features=768, out_features=768, bias=True)
            (gru_rel_pos_linear): Linear(in_features=64, out_features=8, bias=True)
          )
          (dropout): Dropout(p=0.0, inplace=False)
          (layer_norm): LayerNorm((768,), eps=1e-05, elementwise_affine=True)
          (feed_forward): WavLMFeedForward(
            (intermediate_dropout): Dropout(p=0.0, inplace=False)
            (intermediate_dense): Linear(in_features=768, out_features=3072, bias=True)
            (intermediate_act_fn): GELUActivation()
            (output_dense): Linear(in_features=3072, out_features=768, bias=True)
            (output_dropout): Dropout(p=0.0, inplace=False)
          )
          (final_layer_norm): LayerNorm((768,), eps=1e-05, elementwise_affine=True)
        )
      )
    )
  )
  (projector): Linear(in_features=768, out_features=256, bias=True)
  (classifier): Linear(in_features=256, out_features=1, bias=True)
)
  0%|          | 0/3460 [00:00<?, ?it/s]  0%|          | 1/3460 [00:18<17:37:28, 18.34s/it]  0%|          | 2/3460 [00:18<7:30:23,  7.81s/it]   0%|          | 3/3460 [00:19<4:15:33,  4.44s/it]  0%|          | 4/3460 [00:19<2:44:03,  2.85s/it]  0%|          | 5/3460 [00:20<1:53:28,  1.97s/it]  0%|          | 6/3460 [00:20<1:22:59,  1.44s/it]  0%
…
