…
/users/PAS2301/kibria5/.conda/envs/vit_env/lib/python3.9/site-packages/transformers/optimization.py:391: FutureWarning: This implementation of AdamW is deprecated and will be removed in a future version. Use the PyTorch implementation torch.optim.AdamW instead, or set `no_deprecation_warning=True` to disable this warning
  warnings.warn(

log-mel-spectrum dataset:
 DatasetDict({
    train: Dataset({
        features: ['input_values', 'label'],
        num_rows: 11020
    })
    validation: Dataset({
        features: ['input_values', 'label'],
        num_rows: 2700
    })
})

AST model with MOS prediction head:
 ASTForAudioClassification(
  (audio_spectrogram_transformer): ASTModel(
    (embeddings): ASTEmbeddings(
      (patch_embeddings): ASTPatchEmbeddings(
        (projection): Conv2d(1, 768, kernel_size=(16, 16), stride=(10, 10))
      )
      (dropout): Dropout(p=0.0, inplace=False)
    )
    (encoder): ASTEncoder(
      (layer): ModuleList(
        (0-11): 12 x ASTLayer(
          (attention): ASTAttention(
            (attention): ASTSelfAttention(
              (query): Linear(in_features=768, out_features=768, bias=True)
              (key): Linear(in_features=768, out_features=768, bias=True)
              (value): Linear(in_features=768, out_features=768, bias=True)
              (dropout): Dropout(p=0.0, inplace=False)
            )
            (output): ASTSelfOutput(
              (dense): Linear(in_features=768, out_features=768, bias=True)
              (dropout): Dropout(p=0.0, inplace=False)
            )
          )
          (intermediate): ASTIntermediate(
            (dense): Linear(in_features=768, out_features=3072, bias=True)
            (intermediate_act_fn): GELUActivation()
          )
          (output): ASTOutput(
            (dense): Linear(in_features=3072, out_features=768, bias=True)
            (dropout): Dropout(p=0.0, inplace=False)
          )
          (layernorm_before): LayerNorm((768,), eps=1e-12, elementwise_affine=True)
          (layernorm_after): LayerNorm((768,), eps=1e-12, elementwise_affine=True)
        )
      )
    )
    (layernorm): LayerNorm((768,), eps=1e-12, elementwise_affine=True)
  )
  (classifier): Linear(in_features=768, out_features=1, bias=True)
)
  0%|          | 0/3460 [00:00<?, ?it/s]  0%|          | 1/3460 [00:18<18:01:04, 18.75s/it]  0%|          | 2/3460 [00:20<8:08:20,  8.47s/it]   0%|          | 3/3460 [00:21<4:51:09,  5.05s/it]  0%|          | 4/3460 [00:21<3:18:32,  3.45s/it]  0%|          | 5/3460 [00:22<2:27:21,  2.56s/it]  0%|          | 6/3460 [00:26<2:51:12,  2.97s/it]  0%
…
