…
/users/PAS2301/kibria5/.conda/envs/vit_env/lib/python3.9/site-packages/transformers/optimization.py:391: FutureWarning: This implementation of AdamW is deprecated and will be removed in a future version. Use the PyTorch implementation torch.optim.AdamW instead, or set `no_deprecation_warning=True` to disable this warning
  warnings.warn(

encoded dataset:
 DatasetDict({
    train: Dataset({
        features: ['input_values', 'label'],
        num_rows: 11020
    })
    validation: Dataset({
        features: ['input_values', 'label'],
        num_rows: 2700
    })
})
HuBERT model with MOS prediction head:
 HubertForSequenceClassification(
  (hubert): HubertModel(
    (feature_extractor): HubertFeatureEncoder(
      (conv_layers): ModuleList(
        (0): HubertGroupNormConvLayer(
          (conv): Conv1d(1, 512, kernel_size=(10,), stride=(5,), bias=False)
          (activation): GELUActivation()
          (layer_norm): GroupNorm(512, 512, eps=1e-05, affine=True)
        )
        (1-4): 4 x HubertNoLayerNormConvLayer(
          (conv): Conv1d(512, 512, kernel_size=(3,), stride=(2,), bias=False)
          (activation): GELUActivation()
        )
        (5-6): 2 x HubertNoLayerNormConvLayer(
          (conv): Conv1d(512, 512, kernel_size=(2,), stride=(2,), bias=False)
          (activation): GELUActivation()
        )
      )
    )
    (feature_projection): HubertFeatureProjection(
      (layer_norm): LayerNorm((512,), eps=1e-05, elementwise_affine=True)
      (projection): Linear(in_features=512, out_features=768, bias=True)
      (dropout): Dropout(p=0.1, inplace=False)
    )
    (encoder): HubertEncoder(
      (pos_conv_embed): HubertPositionalConvEmbedding(
        (conv): Conv1d(768, 768, kernel_size=(128,), stride=(1,), padding=(64,), groups=16)
        (padding): HubertSamePadLayer()
        (activation): GELUActivation()
      )
      (layer_norm): LayerNorm((768,), eps=1e-05, elementwise_affine=True)
      (dropout): Dropout(p=0.1, inplace=False)
      (layers): ModuleList(
        (0-11): 12 x HubertEncoderLayer(
          (attention): HubertAttention(
            (k_proj): Linear(in_features=768, out_features=768, bias=True)
            (v_proj): Linear(in_features=768, out_features=768, bias=True)
            (q_proj): Linear(in_features=768, out_features=768, bias=True)
            (out_proj): Linear(in_features=768, out_features=768, bias=True)
          )
          (dropout): Dropout(p=0.1, inplace=False)
          (layer_norm): LayerNorm((768,), eps=1e-05, elementwise_affine=True)
          (feed_forward): HubertFeedForward(
            (intermediate_dropout): Dropout(p=0.1, inplace=False)
            (intermediate_dense): Linear(in_features=768, out_features=3072, bias=True)
            (intermediate_act_fn): GELUActivation()
            (output_dense): Linear(in_features=3072, out_features=768, bias=True)
            (output_dropout): Dropout(p=0.1, inplace=False)
          )
          (final_layer_norm): LayerNorm((768,), eps=1e-05, elementwise_affine=True)
        )
      )
    )
  )
  (projector): Linear(in_features=768, out_features=256, bias=True)
  (classifier): Linear(in_features=256, out_features=1, bias=True)
)
  0%|          | 0/3460 [00:00<?, ?it/s]  0%|          | 1/3460 [00:25<24:13:03, 25.20s/it]  0%|          | 2/3460 [00:27<11:17:55, 11.76s/it]  0%|          | 3/3460 [00:29<7:10:30,  7.47s/it]   0%|          | 4/3460 [00:32<5:13:11,  5.44s/it]  0%|          | 5/3460 [00:34<4:08:42,  4.32s/it]  0%|          | 6/3460 [00:36<3:29:58,  3.65s/it]  0
…
